model.pth (torch, 830568 bytes, 8 tensors)

net.0.weight f4 [16, 1, 3, 3]
-0.09203163 0.096151255 -0.5609182 -0.40082446 0.3951786 0.26287878 -0.009594372 0.15892401
-0.55831873 -0.976213 -0.29689252 0.17846186 -0.14150843 0.7608933 0.07109944 -0.66634834
0.04821068 -0.48419392 -0.5523006 -1.1523987 -0.58771473 -0.32614276 -0.16017666 0.15001504
0.59016746 0.48856592 0.69522107 0.15413864 0.056660987 0.040377397 0.068316504 0.045547068
-0.31804085 -0.028918756 0.033504967 -0.22656131 0.45415908 0.28728575 0.57721364 -0.090000086
0.05003381 0.14732109 -0.055898212 -0.79491055 -0.44362965 -0.011344157 -0.50396943 -0.75123405
0.8508377 0.08893614 -0.35655376 0.111939415 0.5657858 0.055570778 -0.74675536 -0.013703179
0.08445975 0.17448165 0.8954226 0.43931654 0.68185306 -0.43594894 -0.6185776 -0.11933899
0.18547758 0.10880002 0.25255546 0.25401273 -0.22332689 0.2639941 -0.055537418 -0.51668084
0.2251251 -0.32825524 -0.6359289 0.60687387 0.25474134 -0.3859513 -0.17479615 -0.27167276
0.16952035 0.25137997 0.2911986 -0.0022113621 -0.06854328 0.47467247 -0.3080382 -0.6686322
-0.4767308 0.39848962 -0.16861516 0.777451 -0.29008713 -0.40759587 0.4867833 -0.03828023
0.06882692 0.29984134 0.37436554 0.033115588 -0.022878608 0.18533918 -0.23229206 -0.15488589
-0.14429316 -0.06719383 -0.14935343 -0.28745812 0.4188212 -0.6755217 -0.08221133 0.49365535
0.6669455 0.19932784 -0.32394683 0.093193255 0.01602362 0.05757357 0.056245595 -0.2643578
0.08876321 -0.282266 0.17930967 0.24836873 -0.07548117 -0.049106047 -0.037950195 -0.2820528
-0.17595659 -0.0070706992 0.38756335 0.5601226 -0.717935 0.11857351 0.06847258 0.48288503
0.18454632 -0.011958613 -0.23458175 0.32936633 -0.31176233 -0.5273886 -0.08274706 0.5244477
00000000: 147b bcbd f3ea c43d 5698 0fbf dd38 cdbe
00000010: d954 ca3e 0c98 863e b631 1dbc fabc 223e
00000020: faed 0ebf 18e9 79bf 4c02 98be b5be 363e
00000030: 96e7 10be e7c9 423f 959c 913d ce95 2abf
00000040: 9078 453d 44e8 f7be 9263 0dbf cd81 93bf
00000050: 7974 16bf 2ffc a6be 5a05 24be 8b9d 193e
00000060: 3715 173f 5025 fa3e 02fa 313f 85d6 1d3e
00000070: 5a15 683d c562 253d 86e9 8b3d 908f 3a3d
00000080: 40d6 a2be 07e7 ecbc 813c 093d b0ff 67be
00000090: 8a87 e83e 1e17 933e 46c4 133f f751 b8bd
000000a0: 41f0 4c3d 57db 163e 86f5 64bd 427f 4bbf
000000b0: 6d23 e3be d8dc 39bc 2404 01bf e050 40bf
000000c0: 80d0 593f 2724 b63d 378e b6be 7e40 e53d
000000d0: 57d7 103f 2f9e 633d 5c2b 3fbf 4c83 60bc
000000e0: 3cf9 ac3d 51ab 323e 6a3a 653f 19ee e03e
000000f0: ec8d 2e3f b334 dfbe 1a5b 1ebf 0068 f4bd
00000100: d6ed 3d3e 8bd2 de3d f34e 813e f50d 823e
00000110: ceaf 64be 3c2a 873e 347b 63bd 3245 04bf
00000120: 3287 663e 1211 a8be 3dcc 22bf 165c 1b3f
00000130: 756d 823e 699b c5be c3fd 32be b118 8bbe
00000140: be96 2d3e e0b4 803e fc17 953e 80ec 10bb
00000150: 6b60 8cbd 4508 f33e 2fb7 9dbe 7b2b 2bbf
00000160: 0f16 f4be d506 cc3e 74a9 2cbe 0707 473f
00000170: 4d86 94be 68b0 d0be a93b f93e bbcb 1cbd
00000180: 21f5 8c3d ce84 993e d7ac bf3e 36a4 073d
00000190: eb6b bbbc 8ec9 3d3e f8dd 6dbe 689a 1ebe
000001a0: 96c1 13be eb9c 89bd 1bf0 18be b62d 93be
000001b0: bb6f d63e fdee 2cbf 6a5e a8bd 65c0 fc3e
000001c0: f1bc 2a3f 991c 4c3e 5cdc a5be 1bdc be3d
000001d0: f743 833c 44d2 6b3d c861 663d e859 87be
000001e0: 7cc9 b53d 2b85 90be f49c 373e 5f54 7e3e
000001f0: df95 9abd 6c23 49bd aa71 1bbd 3969 90be
00000200: f72d 34be 53b1 e7bb b46e c63e 3264 0f3f
00000210: 97ca 37bf abd6 f23d 5a3b 8c3d b53c f73e
00000220: b6f9 3c3e 0fee 43bc 3336 70be b4a2 a83e
00000230: 509f 9fbe f002 07bf 4a77 a9bd 3442 063f

net.0.bias f4 [16]
-0.00020962727 -0.00541759 0.15244552 -0.5234803 -0.07725927 -0.049717937 -0.40846348 -0.26780286
0.03444159 -0.274237 -0.4959368 -0.28277215 -0.42556754 -0.51262647 -0.16191201 -0.3733865
00000000: 64cf 5bb9 0a86 b1bb ae1a 1c3e ce02 06bf
00000010: 1c3a 9ebd 09a5 4bbd 2022 d1be 751d 89be
00000020: a012 0d3d cb68 8cbe 6eeb fdbe 83c7 90be
00000030: fde3 d9be 7d3b 03bf 43cc 25be 842c bfbe

net.3.weight f4 [32, 16, 3, 3]
0.47317526 0.22366384 0.45857814 -0.4640511 -0.5384682 -0.36099216 -0.02477156 -0.5514213
0.3313536 -0.7205393 0.6654818 0.27293894 -0.059991516 -0.72582215 0.069963865 -0.34134957
-0.13057643 -0.927001 -0.15398227 0.041339792 0.26418144 -0.37264508 -0.3360598 0.04481849
-0.45884407 -1.2379041 -0.17185251 0.34857517 0.42252424 0.12187644 0.094947964 -0.0065900683
0.19044496 -0.1798943 -0.2749541 0.21721125 -0.35998067 -0.5702178 0.2730129 0.12250136
-0.19782156 -0.6941137 0.7089872 0.51563466 0.43426526 -0.21439213 -0.4882851 -0.5294505
-0.28303528 -0.014082185 0.6093207 -1.1170139 -0.5318392 0.7006204 0.081461795 0.68130124
1.0598967 -0.25569025 -0.74942243 0.04459168 -0.32867545 -0.7710136 -0.21360876 -0.21402922
0.8854306 0.50916606 0.24010918 -0.52735776 0.08749424 0.14844064 -0.40746778 -0.4287879
0.05390562 -0.27402607 -0.4227529 -0.51827776 -0.04432119 0.19481024 0.064214274 -1.8823377
0.25664738 0.01402869 -0.9142549 -0.54956424 0.11798248 -0.25945398 -0.9123057 0.41109064
-0.15322281 0.25293827 0.551402 0.20700034 -0.122094214 0.2477372 -0.06707528 0.19970228
0.16505955 -0.20727928 0.5381658 -0.004346977 0.038253002 0.064702265 0.013716569 -0.010710379
-0.037517082 0.07348397 0.012753209 -0.005459289 -0.15188912 -0.43939728 -0.7759079 -0.62321156
0.1873102 0.12972425 -0.35396194 -0.009161831 1.0674244 -0.062023073 0.104079515 -0.0336091
0.1427012 0.13536835 0.14732915 -0.08773064 0.09837667 0.11314025 -0.051446673 -0.053959195
0.48066565 -0.36697537 -0.1454557 -0.25334302 0.2757311 0.78746563 0.4080317 -0.053627808
-0.9755618 -0.71361774 0.055358667 -0.12084847 -0.29970482 0.23474185 0.33582315 0.44412392
0.24117778 0.16746037 -0.11972485 0.05154475 0.18412308 0.016213369 -0.4266547 -0.5161832
0.34184283 0.22275448 -0.8018137 0.25812966 -0.39380953 0.29154584 0.15171187 0.028307158
-0.8376789 0.03491215 0.1740521 0.19135511 0.18734132 -1.8487005 -1.3302133 -0.9820114
0.4758946 0.75635886 0.49002862 0.32984123 0.0540579 0.4312584 0.17674597 0.16059126
0.40614092 -0.44714803 -0.24000512 -0.09643033 -1.0870895 -0.4629207 0.06733873 0.5802823
0.7862449 0.27078754 0.14655638 -0.5984932 -0.7886566 0.24826215 0.010327847 -0.36514804
-0.035958488 -0.18824284 -0.8651895 -0.83898985 -0.48966527 -0.19737752 -0.17659459 -0.17274143
0.8017061 -0.56453735 0.42480823 -0.10622084 -0.60202616 0.12649278 0.20290539 -0.13516013
0.13282152 0.43862724 -0.47723985 0.3523012 0.042668402 -0.16638394 -0.37800917 -0.07288305
-0.008365627 -0.34058478 -0.64032847 -0.29265314 -0.2716072 -0.48739058 -0.49486542 -0.38059905
-0.2724526 -0.44439068 -0.7889446 -0.116017915 0.48830137 0.27491567 0.29640445 0.4523442
-0.4585769 -0.49837366 0.37800875 0.5167795 0.28238088 0.3205574 0.062213384 -0.34115785
-1.1730882 -0.03565342 0.0022794155 0.031575114 0.06790753 0.010319829 -0.06447482 -0.02837794
0.057052493 -0.024444899 0.011146705 -0.018316349 0.24327904 0.49608964 -0.06656461 0.6879964
00000000: 0744 f23e 2208 653e c1ca ea3e 1b98 edbe
00000010: 0dd9 09bf f7d3 b8be baed cabc f229 0dbf
00000020: 2ea7 a93e 4375 38bf 045d 2a3f a7be 8b3e
00000030: aab9 75bd 7bcf 39bf 3749 8f3d 5fc5 aebe
00000040: d4b5 05be f04f 6dbf 87ad 1dbe ea53 293d
00000050: ca42 873e 56cb bebe 0810 acbe 9893 373d
00000060: 9ced eabe a473 9ebf 1bfa 2fbe 7278 b23e
00000070: 1955 d83e 5b9a f93d 1474 c23d 80f1 d7bb
00000080: 0104 433e 3636 38be c9c6 8cbe a06c 5e3e
00000090: 634f b8be cbf9 11bf 59c8 8b3e fee1 fa3d
000000a0: bc91 4abe 6fb1 31bf 2f80 353f a200 043f
000000b0: 0458 de3e 9c89 5bbe 8100 fabe 118a 07bf
000000c0: 00ea 90be f7b8 66bc 71fc 1b3f 50fa 8ebf
000000d0: 9d26 08bf dc5b 333f 71d5 a63d c269 2e3f
000000e0: b2aa 873f d5e9 82be 26da 3fbf c4a5 363d
000000f0: 2648 a8be 2661 45bf 41bc 5abe 7a2a 5bbe
00000100: 94ab 623f b558 023f 2edf 753e eb00 07bf
00000110: 2e30 b33d d300 183e 9e9f d0be 168a dbbe
00000120: 24cc 5c3d 254d 8cbe 1173 d8be daad 04bf
00000130: 238a 35bd 567c 473e c682 833d 71f0 f0bf
00000140: 4967 833e 97d8 653c 9c0c 6abf 3eb0 0cbf
00000150: cca0 f13d 27d7 84be de8c 69bf 797a d23e
00000160: 71e6 1cbe 2081 813e ae28 0d3f e6f7 533e
00000170: 880c fabd d2ae 7d3e c45e 89bd c17e 4c3e
00000180: 5f05 293e 0541 54be 3cc5 093f 1671 8ebb
00000190: 2eaf 1c3d 9f82 843d 76bb 603c 967a 2fbc
000001a0: 83ab 19bd c37e 963d d6f2 503c d6e3 b2bb
000001b0: d288 1bbe aef8 e0be e6a1 46bf cb8a 1fbf
000001c0: 3fce 3f3e 6fd6 043e 803a b5be 811b 16bc
000001d0: 5da1 883f e80b 7ebd a427 d53d b2a9 09bd
000001e0: 4320 123e 009e 0a3e 74dd 163e 1fac b3bd
000001f0: b579 c93d 13b6 e73d bfb9 52bd 5104 5dbd
00000200: cf19 f63e 32e4 bbbe 57f2 14be 2db6 81be
00000210: a02c 8d3e 5997 493f 88e9 d03e d5a8 5bbd
00000220: 6bbe 79bf a7af 36bf c5bf 623d 677f f7bd
00000230: e972 99be 2b60 703e 03f1 ab3e 3664 e33e
00000240: 4ff7 763e bb7a 2b3e 4d32 f5bd 9620 533d
00000250: c38a 3c3e e6d1 843c 7c72 dabe 9524 04bf
00000260: 0606 af3e c019 643e aa43 4dbf 9229 843e
00000270: 67a1 c9be 7f45 953e 5b5a 1b3e 6ae4 e73c
00000280: 2072 56bf 0b00 0f3d b73a 323e 98f2 433e
00000290: 67d6 3f3e 38a2 ecbf 6e44 aabf 1965 7bbf
000002a0: 75a8 f33e bca0 413f 08e5 fa3e f3e0 a83e
000002b0: d16b 5d3d e7cd dc3e e5fc 343e 0972 243e
000002c0: b4f1 cf3e 96f0 e4be e7c3 75be 447d c5bd
000002d0: c025 8bbf f103 edbe e3e8 893d 618d 143f
000002e0: 5947 493f aaa4 8a3e e012 163e da36 19bf
000002f0: 66e5 49bf 6f38 7e3e 2136 293c aff4 babe
00000300: 3549 13bd bbc2 40be 0f7d 5dbf 0ac8 56bf
00000310: 68b5 fabe 551d 4abe 36d5 34be 21e3 30be
00000320: 9c3c 4d3f 8585 10bf 7780 d93e 508a d9bd
00000330: 631e 1abf 5387 013e 6ec6 4f3e 6b67 0abe
00000340: 5d02 083e c093 e03e c858 f4be d360 b43e
00000350: 10c5 2e3d 8d60 2abe 6b8a c1be b543 95bd
00000360: fc0f 09bc 2161 aebe 91ec 23bf a2d6 95be
00000370: 1910 8bbe 428b f9be 005f fdbe e1dd c2be
00000380: e87e 8bbe 2d87 e3be 46f8 49bf cd9a edbd
00000390: a302 fa3e bfc1 8c3e 53c2 973e a999 e73e
000003a0: 97ca eabe d52a ffbe 5d8a c13e a94b 043f
000003b0: 3a94 903e 1920 a43e 76d3 7e3d 3eac aebe
000003c0: c127 96bf 5209 12bd 3f62 153b e854 013d
000003d0: 1a13 8b3d 8014 293c 600b 84bd db78 e8bc
000003e0: e0af 693d ab40 c8bc aba0 363c 2b0c 96bc
000003f0: 241e 793e 76ff fd3e 0753 88bd 8820 303f

net.3.bias f4 [32]
-0.42563474 -0.19560689 -0.2346526 -0.09720045 -0.6643789 -0.12003718 -0.15424883 -0.7107422
-0.039783083 -0.32611242 -0.3976662 -0.25781366 -0.39151222 -0.116897516 0.14739951 -0.31361914
-0.20474468 0.014679021 0.052779697 0.07302579 -0.19450767 -0.23038882 -0.23919627 -0.15056038
-0.33762798 -0.4503676 -0.47721857 -0.3359856 -0.1966869 -0.4700259 -0.13096848 -0.48032427
00000000: ccec d9be 2c4d 48be c548 70be 0811 c7bd
00000010: bc14 2abf 0ed6 f5bd 68f3 1dbe 33f3 35bf
00000020: 96f3 22bd 35f8 a6be e79a cbbe 2700 84be
00000030: 4a74 c8be f767 efbd e6ef 163e b092 a0be
00000040: 97a8 51be 4780 703c 862f 583d 8c8e 953d
00000050: 052d 47be 0ceb 6bbe deef 74be 802c 1abe
00000060: 93dd acbe 9596 e6be fe55 f4be 4e06 acbe
00000070: 4a68 49be 3ca7 f0be 9a1c 06be 10ed f5be

net.7.weight f4 [128, 1568]
0.24662694 0.12976281 0.070235774 0.39849925 -0.3943834 0.22641942 -0.0015357335 -0.5588228
-0.052213028 0.19740078 0.017691879 0.49983767 0.040828176 0.109428436 -0.16922952 -0.012061064
-0.26911324 0.33517262 1.0552974 0.43905532 0.1006162 0.6550635 -0.32098997 0.043006316
-0.5696488 -1.004028 0.10269176 -0.02960749 0.29405978 -0.17889181 -0.22707972 0.42147428
0.32570377 0.37180316 0.1164048 0.25418356 0.38231012 -0.26139507 0.041107554 0.32490346
0.077883646 0.08928987 0.055780433 -0.47331902 -0.18480949 -0.27172908 0.25704816 -0.049803823
-0.027527321 0.37161586 0.13580549 -0.033378556 0.28357124 -0.17616779 0.19889349 0.33695805
0.07546201 -0.6599649 0.25009128 -0.7290145 0.022529777 0.3067686 0.30575284 0.10728651
-0.52947396 -0.20241873 -0.48183715 -0.27901757 -0.21639396 0.2507312 0.23357958 -0.13451277
-1.3939093 -0.7873702 -0.058648013 -0.8508369 0.36301577 0.54360485 -0.57247883 0.11482937
-0.813456 -0.7522866 0.11431261 0.6097532 0.05258977 0.198645 -0.35942093 0.04792688
0.6408497 0.23379299 0.5748489 0.7444326 0.75813067 0.6018065 -0.16294236 0.3441105
-0.026772434 -0.55899245 0.5444548 -0.21845904 0.31478202 0.46637267 0.25169888 -0.34311053
-0.06963232 1.1384417 -0.4974977 -0.26235193 0.3427734 -0.23388168 0.062046394 0.26943165
-0.18697368 -0.21320693 0.08233914 -0.025011826 -0.9244097 -0.51003224 0.18724707 0.3754468
-0.26608056 -1.0883526 -2.018332 -1.0418359 -0.5727664 0.12285932 0.34586504 0.14118637
-1.1240537 -0.40631983 -0.32885608 0.8002399 0.44989967 0.9628339 0.4199477 0.18489452
0.31002158 -0.13730074 0.49144936 0.5374652 1.0630683 0.9548562 -0.1413785 0.90906423
1.1797582 0.48074248 0.67532027 -0.20183346 0.054025494 -0.35168156 -0.1056045 0.12996818
0.120571814 0.0079557765 -0.36490372 -0.56544375 0.54862416 0.11544567 0.00647765 -0.25947705
-0.025810383 -0.069259614 0.041664127 -0.13094853 0.24522048 0.70008576 0.4171151 0.094577044
0.081437774 -0.048240297 -0.80852324 -0.06391587 0.03787674 1.0974866 0.3909306 0.026423167
-0.5940092 -0.37852263 0.10811906 -0.64199835 -0.85964316 -0.38748637 0.9758636 -0.267244
0.25913206 0.06280976 -0.44939244 0.47920018 0.17175516 -0.030233582 0.077828005 -0.86327785
-0.7428283 0.05948514 -0.045165505 0.10725989 0.49605617 -0.30940294 0.042702265 0.14429814
0.04547691 -0.03955061 0.12891234 -0.47453684 -0.41034144 0.70611125 -0.079692855 -0.01220492
-0.2085047 0.7350622 0.35947224 -0.058641393 -0.24392037 0.11008161 -0.19004247 -0.010647642
0.39603138 -0.4711608 0.8263263 0.2698553 0.22806226 -0.40413755 -0.2302446 0.10686866
1.0328232 -0.22048058 -0.050528854 -0.2976378 -0.7535476 -0.05050399 -0.0047247186 0.4474257
0.756524 -0.42408302 -0.12398148 0.3196988 0.8380053 0.27627528 0.8332331 0.75456756
-0.4275386 0.26027963 -0.39082706 0.7302476 -0.18328129 -0.14652823 -0.38944408 0.83807904
0.40250763 0.5925916 0.3678604 0.030608473 0.34834862 -0.25095028 0.32831013 0.08992473
00000000: c68b 7c3e 8be0 043e c6d7 8f3d 1808 cc3e
00000010: 9fec c9be 7eda 673e aa4a c9ba 030f 0fbf
00000020: 54dd 55bd 6e23 4a3e 8fee 903c b9ea ff3e
00000030: 723b 273d 041c e03d 814a 2dbe c59b 45bc
00000040: 36c9 89be bf9b ab3e fc13 873f dccb e03e
00000050: de0f ce3d 3eb2 273f cc58 a4be 6427 303d
00000060: 81d4 11bf fd83 80bf 0f50 d23d 688b f2bc
00000070: 018f 963e 6a2f 37be 9687 68be 7acb d73e
00000080: a5c2 a63e fc5c be3e a465 ee3d 5924 823e
00000090: 27be c33e 93d5 85be 6560 283d bf59 a63e
000000a0: 7681 9f3d 9bdd b63d 067a 643d df56 f2be
000000b0: b33e 3dbe 1320 8bbe d19b 833e 18ff 4bbd
000000c0: fa80 e1bc 6f44 be3e 9810 0b3e f4b7 08bd
000000d0: 4030 913e 5465 34be bcaa 4b3e c485 ac3e
000000e0: d48b 9a3d 76f3 28bf f70b 803e b2a0 3abf
000000f0: 5e90 b83c c610 9d3e a38b 9c3e 08b9 db3d
00000100: 9b8b 07bf db46 4fbe 5cb3 f6be 64db 8ebe
00000110: 6196 5dbe d75f 803e 7c2f 6f3e b7bd 09be
00000120: 9f6b b2bf 1891 49bf e638 70bd 72d0 59bf
00000130: 34dd b93e b029 0b3f f98d 12bf a92b eb3d
00000140: a73e 50bf db95 40bf bb1c ea3d c918 1c3f
00000150: 5f68 573d 9869 4b3e 0506 b8be fa4e 443d
00000160: ba0e 243f 6e67 6f3e 4c29 133f 2393 3e3f
00000170: da14 423f fe0f 1a3f 5dda 26be 402f b03e
00000180: dd51 dbbc 211a 0fbf 6461 0b3f bab3 5fbe
00000190: 1c2b a13e 66c8 ee3e adde 803e 2fac afbe
000001a0: 649b 8ebd 75b8 913f 05b8 febe fe52 86be
000001b0: ff7f af3e ae7e 6fbe 5c24 7e3d f2f2 893e
000001c0: 0776 3fbe eb52 5abe 6ca1 a83d 9ae5 ccbc
000001d0: 1da6 6cbf 7991 02bf b2bd 3f3e 903a c03e
000001e0: b63b 88be 234f 8bbf 5a2c 01c0 e15a 85bf
000001f0: d2a0 12bf ab9d fb3d 3915 b13e 2993 103e
00000200: fee0 8fbf 2709 d0be d35f a8be 86dc 4c3f
00000210: 4059 e63e 487c 763f 6303 d73e fd54 3d3e
00000220: 26bb 9e3e 9198 0cbe 409f fb3e 5297 093f
00000230: 9f12 883f 7571 743f 87c5 10be 6fb8 683f
00000240: 5102 973f e123 f63e cae1 2c3f 6ead 4ebe
00000250: d649 5d3d 9b0f b4be 2c47 d8bd 6116 053e
00000260: 5bee f63d f258 023c a9d4 babe ecc0 10bf
00000270: a272 0c3f c86e ec3d 7742 d43b 2dda 84be
00000280: 4c70 d3bc fcd7 8dbd 01a8 2a3d 5f17 06be
00000290: 141b 7b3e d238 333f 1c90 d53e 9cb1 c13d
000002a0: d9c8 a63d 9e97 45bd 61fb 4ebf 53e6 82bd
000002b0: a424 1b3d 717a 8c3f 0e28 c83e 6675 d83c
000002c0: fd10 18bf b8cd c1be 876d dd3d 015a 24bf
000002d0: 9311 5cbf 9d64 c6be 32d2 793f 35d4 88be
000002e0: f5ac 843e 67a2 803d c416 e6be ba59 f53e
000002f0: 96e0 2f3e 6bac f7bc 4a64 9f3d c7ff 5cbf
00000300: ff29 3ebf b1a6 733d 77ff 38bd 13ab db3d
00000310: 13fb fd3e 106a 9ebe 92e8 2e3d e4c2 133e
00000320: ff45 3a3d d2ff 21bd 9901 043e 7ef6 f2be
00000330: 4618 d2be b5c3 343f 0236 a3bd 25f7 47bc
00000340: 4282 55be 092d 3c3f bf0c b83e f531 70bd
00000350: 43c6 79be 7872 e13d 7e9a 42be 7373 2ebc
00000360: a0c4 ca3e fd3b f1be 1f8a 533f 792a 8a3e
00000370: 2789 693e 1eeb cebe 3ec5 6bbe f5dd da3d
00000380: 8d33 843f a9c5 61be 58f7 4ebd fb63 98be
00000390: 7fe8 40bf 46dd 4ebd d0d1 9abb fb14 e53e
000003a0: 8fab 413f 6921 d9be 01ea fdbd 90af a33e
000003b0: 8487 563f f473 8d3e c44e 553f 572b 413f
000003c0: 57e6 dabe 5f43 853e 7c1a c8be 82f1 3a3f
000003d0: 17ae 3bbe 7f0b 16be 3765 c7be 598c 563f
000003e0: 7b15 ce3e 15b4 173f 3358 bc3e 9fbe fa3c
000003f0: c05a b23e 8e7c 80be 4418 a83e 752a b83d

net.7.bias f4 [128]
-0.20922571 -0.31064898 0.007975072 -0.032706365 -0.18291561 -0.12054052 -0.17934762 -0.030494895
-0.39340332 -0.016757902 -0.16466625 -0.022975229 -0.0004687041 -0.31163865 -0.26331723 -0.026096152
-0.0409228 -0.1338336 -0.2733875 -0.3997621 -0.31522033 -0.062370017 -0.3083172 -0.039934963
-0.21122304 -0.5386882 -0.028728113 -0.051380616 -0.14642775 -0.18397829 -0.18711059 0.11642109
-0.3348402 -0.0060785147 -0.05753104 -0.19268803 -0.012163069 -0.044681415 -0.55076027 0.13567077
-0.023316182 -0.002963506 -0.3004568 -0.09181385 -0.09083612 -0.04682207 -0.1587274 -0.27357048
0.3510256 -0.0049913605 -0.18072027 -0.01985983 -0.4740296 -0.24244829 -0.15749633 0.13464232
0.11623764 -0.1350128 -0.16354774 -0.048843384 0.054730173 -0.02873285 -0.08368147 0.091354266
0.18680432 -0.21993206 -0.0086264415 0.09058211 -0.01868672 -0.15598558 -0.0033716918 -0.5277186
-0.0025901773 -0.23761678 -0.18554184 -0.0051469794 -0.08188286 -0.019799832 0.013627429 -0.020451618
-0.45104653 -0.02048349 -0.0125501575 -0.19316997 -0.30958122 -0.10104791 -0.03159895 -0.050125256
-0.106561005 -0.21744026 -0.029464437 -0.13306038 -0.25724083 -0.09634624 -0.024231594 0.0056706215
-0.08013845 0.05623084 -0.38455832 -0.43066046 -0.25564778 -0.27865183 0.011295495 -0.18952031
-0.1972806 -0.020762078 -0.013747217 -0.035425603 -0.34875345 -0.0288332 -0.19489847 0.07588813
-0.016155554 -0.15348254 -0.024865096 -0.26269278 -0.0020780317 -0.031240433 -0.009859508 0.15708014
-0.08397332 -0.19557105 0.15476665 -0.27497396 -0.27456036 -0.03043787 -0.29132357 -0.21434662
00000000: 443f 56be 620d 9fbe e0a9 023c 1cf7 05bd
00000010: 3b4e 3bbe f3dd f6bd e7a6 37be 6ed0 f9bc
00000020: 296c c9be de47 89bc 459e 28be 8c36 bcbc
00000030: 66bc f5b9 1a8f 9fbe 84d1 86be 99c7 d5bc
00000040: aa9e 27bd ad0b 09be 72f9 8bbe 9ead ccbe
00000050: 8f64 a1be b477 7fbd c1db 9dbe d892 23bd
00000060: da4a 58be 78e7 09bf 3857 ebbc 7b74 52bd
00000070: 28f1 15be ce64 3cbe eb99 3fbe 2e6e ee3d
00000080: 2d70 abbe 472e c7bb aba5 6bbd 0350 45be
00000090: 9c47 47bc dc03 37bd a0fe 0cbf 47ed 0a3e
000000a0: 9401 bfbc 6137 42bb 79d5 99be e608 bcbd
000000b0: 4a08 babd 80c8 3fbd 6f89 22be 6e11 8cbe
000000c0: a1b9 b33e 918e a3bb bc0e 39be 15b1 a2bc
000000d0: 02b4 f2be 5d44 78be b846 21be addf 093e
000000e0: 000e ee3d cc40 0abe 0f79 27be 0010 48bd
000000f0: bf2c 603d 2761 ebbc 3161 abbd f217 bb3d
00000100: a249 3f3e df35 61be eb55 0dbc 1d83 b93d
00000110: e414 99bc afba 1fbe 9af7 5cbb 9118 07bf
00000120: f7bf 29bb d051 73be aefe 3dbe fea7 a8bb
00000130: 33b2 a7bd 4233 a2bc 9445 5f3c 278a a7bc
00000140: 92ef e6be fecc a7bc 2d9f 4dbc 59ce 45be
00000150: 6e81 9ebe 35f2 cebd e76d 01bd 2450 4dbd
00000160: a83c dabd a9a8 5ebe 675f f1bc fb40 08be
00000170: 12b5 83be 2d51 c5bd 5681 c6bc 9fd0 b93b
00000180: a11f a4bd 4f52 663d d4e4 c4be 877f dcbe
00000190: 44e4 82be 74ab 8ebe bd10 393c 9d11 42be
000001a0: ed03 4abe 3c15 aabc 023c 61bc 701a 11bd
000001b0: d08f b2be 9a33 ecbc 7793 47be 3c6b 9b3d
000001c0: a758 84bc 872a 1dbe e3b1 cbbc ab7f 86be
000001d0: 962f 08bb f0eb ffbc c689 21bc 9ed9 203e
000001e0: 34fa abbd c743 48be 267b 1e3e 63c9 8cbe
000001f0: 2d93 8cbe d758 f9bc 5d28 95be ae7d 5bbe

net.9.weight f4 [10, 128]
0.53279155 -0.59092057 0.053658277 -0.0007950185 -0.7662241 -0.5785217 -0.98809713 -0.27865416
-0.58283335 -0.069968954 -0.96872854 -0.09396792 0.0013594137 -1.5832497 -0.41431114 -0.07841048
-0.042556953 -0.45780933 -0.9090135 0.124565296 0.12463031 0.005086077 -0.4069084 -0.00816198
-0.4928021 0.20015144 0.058960978 -0.85605484 -1.2703118 0.50210017 0.4760365 -1.4470766
-0.057753045 -0.005205894 -1.7375768 0.2975376 -0.057305597 0.076418355 0.26876563 -1.4271319
-0.066832945 0.06506361 -1.4523679 0.10839949 -0.45533472 -0.03470093 -0.15608755 -0.7025123
-0.40009996 0.0823534 -0.2906247 -0.021147348 -0.80118144 0.5379542 -0.6763574 -0.6967513
0.3436818 -0.46091607 -0.65380585 0.13777764 0.15882851 0.070107065 -0.13851762 0.42253095
-0.26619422 -0.5509726 -0.42472157 -0.81047773 -0.038646884 -0.21069324 0.35028753 -0.14701197
-0.6176133 0.14423133 0.4434355 -1.578782 -0.9881139 -0.044490788 -0.05857985 0.06920271
-1.4190824 -0.0069141705 -0.83085924 0.052064136 -1.5340257 -0.1700827 0.0508926 0.07158342
-0.26887324 -0.853961 -0.06942557 -0.24119067 -0.23790689 0.16434795 0.01938144 -0.26375937
-0.2972858 0.2252267 -0.3417829 -0.033994693 -0.3914439 -1.0486768 -0.8921732 0.24401881
-0.6904664 0.63143086 -0.022162857 0.00731334 -1.0562845 0.06968121 -0.6721468 0.1919534
0.07554317 -0.4189809 0.0002994263 0.39268616 -0.01782642 0.045687873 0.32174274 -1.5428567
0.14532775 0.012368714 -0.1184338 -0.03243622 -0.54490256 0.36689654 0.10137786 0.07824065
0.6685721 -0.64329153 -0.06808379 -0.05214667 -1.4482623 -1.1379375 -0.06623537 0.30330238
-0.06283784 -0.031723555 0.31196758 0.0030490882 0.02870487 0.25300768 -0.057910785 -0.06746477
-0.05515758 0.18336119 -0.39900345 -1.142766 -1.0970193 0.0052224975 0.20407896 -0.05568389
0.26976216 -1.1714308 -0.02624674 0.027240949 -0.48697928 -0.5429754 0.31562373 0.19276692
-0.764365 -0.07948501 -0.47891918 0.64049166 -0.07782353 -0.033616707 -0.89258456 0.19427131
-0.04903985 -0.011257898 -1.024034 0.28982133 0.21849276 -0.039099567 -1.0884733 -0.7177829
0.1024149 0.01766697 0.084985964 -0.010770625 -0.4117778 0.17545 0.036974087 0.2107295
-0.38116524 0.21017468 0.13035905 -1.0012429 0.061516974 0.034176372 0.35729995 -0.42620528
0.16720168 -0.942204 -0.8386793 0.07340047 0.014496213 -0.27914083 -0.39235404 -1.6872338
0.55477214 0.31018248 -0.28303877 -0.026003096 -0.38719136 -0.08365952 -0.047052257 0.05359151
-0.1899123 -0.1535974 0.25086546 -0.44939572 -0.7744626 0.20731439 0.04519988 -0.030443106
0.08874726 -0.27601862 0.07752426 -1.4702889 -0.23654474 0.4184422 -0.026648609 -0.79888153
-1.4352595 -1.027007 -0.5564526 -1.2326673 -0.6282309 -0.13999268 0.04423357 -0.33026588
-0.4961683 0.3043977 -0.022673452 -0.007563591 -0.017886117 -0.043437045 0.006136882 -1.0191008
0.06242983 -1.3156651 0.035468206 -0.235195 0.0631011 0.058178816 0.28586844 0.31162265
-0.037807513 0.011643566 -0.6375061 -0.014799377 0.434151 -0.39802337 -0.7831442 -0.6738914
00000000: 0765 083f 9246 17bf c8c8 5b3d ca68 50ba
00000010: 4327 44bf 001a 14bf eff3 7cbf c2ab 8ebe
00000020: 9134 15bf e24b 8fbd 98fe 77bf 4172 c0bd
00000030: 5b2e b23a eda7 cabf 9720 d4be ac95 a0bd
00000040: 3350 2ebd fc65 eabe 1cb5 68bf 171c ff3d
00000050: 2d3e ff3d 1ba9 a63b 4c56 d0be d3b9 05bc
00000060: 8f50 fcbe 80f4 4c3e 1181 713d 6926 5bbf
00000070: 9499 a2bf a389 003f 0ebb f33e ce39 b9bf
00000080: 758e 6cbd 3496 aabb eb68 debf d956 983e
00000090: 46b9 6abd 3a81 9c3d a69b 893e 42ac b6bf
000000a0: b6df 88bd 1240 853d 31e7 b9bf 8d00 de3d
000000b0: a221 e9be 9022 0ebd 6ad5 1fbe d9d7 33bf
000000c0: e7d9 ccbe e6a8 a83d c3cc 94be 343d adbc
000000d0: 3a1a 4dbf 5eb7 093f c225 2dbf 4b5e 32bf
000000e0: 10f7 af3e 31fd ebbe d25f 27bf 9515 0d3e
000000f0: f1a3 223e 4b94 8f3d 90d7 0dbe fa55 d83e
00000100: 9c4a 88be 8a0c 0dbf 1b75 d9be 787b 4fbf
00000110: 324c 1ebd f8bf 57be e358 b33e 4e8a 16be
00000120: e81b 1ebf 61b1 133e fa09 e33e 8715 cabf
00000130: 08f5 7cbf f93b 36bd 6df1 6fbd 27ba 8d3d
00000140: 7ea4 b5bf 4490 e2bb 31b3 54bf 3441 553d
00000150: f45a c4bf 292a 2ebe c274 503d 549a 923d
00000160: c1a9 89be 309d 5abf fe2e 8ebd b0fa 76be
00000170: dd9d 73be d44a 283e d3c5 9e3c 780b 87be
00000180: d835 98be d4a1 663e 2bfe aebe 053e 0bbd
00000190: 566b c8be 0b3b 86bf 7665 64bf 11e0 793e
000001a0: 68c2 30bf 74a5 213f e18e b5bc bea4 ef3b
000001b0: 5534 87bf 06b5 8e3d d011 2cbf 6f8f 443e
000001c0: 61b6 9a3d aa84 d6be 51fc 9c39 290e c93e
000001d0: b608 92bc 3523 3b3d 77bb a43e 547c c5bf
000001e0: ccd0 143e 26a6 4a3c 6c8d f2bd d8db 04bd
000001f0: bc7e 0bbf ddd9 bb3e 329f cf3d a23c a03d
00000200: 8b27 2b3f c1ae 24bf 846f 8bbd bf97 55bd
00000210: a960 b9bf f0a7 91bf 69a6 87bd 734a 9b3e
00000220: 20b1 80bd 8ff0 01bd 37ba 9f3e 36d3 473b
00000230: 7a26 eb3c 398a 813e dc33 6dbd f82a 8abd
00000240: eaec 61bd 09c3 3b3e 2e4a ccbe 2846 92bf
00000250: 216b 8cbf 7c21 ab3b 13fa 503e ca14 64bd
00000260: 441e 8a3e 72f1 95bf 6703 d7bc 6928 df3c
00000270: 5955 f9be 7000 0bbf 6f99 a13e b164 453e
00000280: 6dad 43bf 09c9 a2bd e534 f5be 43f7 233f
00000290: f161 9fbd acb1 09bd 6c80 64bf 0fef 463e
000002a0: 02de 48bd 0c73 38bc 8c13 83bf 7663 943e
000002b0: 91bc 5f3e de26 20bd 1853 8bbf 9fc0 37bf
000002c0: e7be d13d 52ba 903c 1f0d ae3d 4777 30bc
000002d0: 8ad4 d2be 2aa9 333e 2472 173d 79c9 573e
000002e0: 1728 c3be 0838 573e d87c 053e ba28 80bf
000002f0: 39f9 7b3d 86fc 0b3d 05f0 b63e 9437 dabe
00000300: eb36 2b3e 4834 71bf b0b3 56bf fc52 963d
00000310: 8681 6d3c 8ceb 8ebe a1e2 c8be 47f7 d7bf
00000320: 8c05 0e3f 3dd0 9e3e 75ea 90be 7204 d5bc
00000330: f23d c6be af55 abbd deb9 40bd c582 5b3d
00000340: 5f78 42be a348 1dbe 7071 803e 3217 e6be
00000350: 2e43 46bf 394a 543e 8223 393d d263 f9bc
00000360: 20c1 b53d 5052 8dbe 0ac5 9e3d 6d32 bcbf
00000370: c938 72be 0e3e d63e 2f4e dabc 8083 4cbf
00000380: 95b6 b7bf f774 83bf ad73 0ebf 0bc8 9dbf
00000390: bed3 20bf 3e5a 0fbe 432e 353d 9c18 a9be
000003a0: c509 febe 04da 9b3e adbd b9bc 00d8 f7bb
000003b0: e885 92bc 0beb 31bd e617 c93b e571 82bf
000003c0: 6cb6 7f3d b767 a8bf 1c47 113d f5d6 70be
000003d0: 263b 813d e94c 6e3d 595d 923e 018d 9f3e
000003e0: 0ddc 1abd a8c4 3e3c 9a33 23bf 1679 72bc
000003f0: 0a49 de3e b8c9 cbbe 237c 48bf 2684 2cbf

net.9.bias f4 [10]
-0.291209 -0.114088394 -0.25039017 0.025405273 0.3805326 -0.17387037 -0.30750957 -0.06325397
0.4313505 -0.32348934
00000000: 5919 95be 2da7 e9bd 2433 80be b81e d03c
00000010: 2bd5 c23e 130b 32be e571 9dbe 4c8b 81bd
00000020: f9d9 dc3e 65a0 a5be
